results/251214-181350/ddqn_q_network.pt (torch, 307573 bytes, 10 tensors)

conv1.weight f4 [16, 4, 3]
0	0xbdf35932	-0.11882247
1	0x3e10e3dc	0.14149421
2	0x3dc81c41	0.09771014
3	0x3e245afd	0.16050334
4	0x3e38de15	0.18053468
5	0x3e81a20c	0.25318944
6	0xbe6a6dab	-0.22893398
7	0x3d52ae52	0.051435776
8	0xbd388daa	-0.045056976
9	0x3e544fc6	0.20733556
10	0xbe887cf6	-0.26657838
11	0x3e2bdc7d	0.16783328
12	0x3e9d15b1	0.30680612
13	0x3e117cd6	0.14207777
14	0xbcab5195	-0.020912925
15	0x3d19246b	0.037388247
16	0xbe403a29	-0.18772186
17	0xbe16c53d	-0.14723678
18	0xbd1e23fa	-0.03860853
19	0xbdbfd566	-0.093668744
20	0xbdb519af	-0.088427894
21	0x3e861dc1	0.26194575
22	0x3e59f6a3	0.2128549
23	0x3e0c2099	0.1368431
24	0xbe97df37	-0.29662487
25	0x3e5175f4	0.20455152
26	0x3dd4fbe2	0.10399605
27	0x3ea8bcb7	0.32956478
28	0x3e23cf29	0.15996994
29	0xbe6e42e0	-0.23267698
30	0x3d952942	0.0728326
31	0xbda5b8e8	-0.08091909
32	0x3ceff772	0.029292796
33	0x3e4f369a	0.20235673
34	0xbe28cc6c	-0.16484231
35	0x3d039ad3	0.032130074
36	0xbe6edfc5	-0.23327549
37	0xbced895a	-0.028996158
38	0x3e94baad	0.29048672
39	0x3da54062	0.08068921
40	0xbe251ba7	-0.1612383
41	0xbc7f34b0	-0.0155765265
42	0x3d4d5c52	0.05013687
43	0x3eb618b0	0.3556571
44	0x3e99b2cc	0.30019224
45	0xbd3097b1	-0.043113414
46	0x3d0fac81	0.035076622
47	0xbe1ad692	-0.15120915
48	0xbeadc445	-0.33938804
49	0x3cc0f776	0.023555499
50	0x3ec38b5e	0.38192266
51	0xbcce48ae	-0.02518114
52	0xbe091e15	-0.13390382
53	0x3e4b8adf	0.19877194
54	0x3e5133a1	0.20429851
55	0xbd9e7bfc	-0.07738492
56	0xbe2abc3a	-0.16673365
57	0x3e3346ba	0.17507449
58	0x3dbe1c7a	0.09282775
59	0x3d94f70f	0.07273685
60	0xbf26cbc9	-0.651547
61	0xbe30223a	-0.17200556
62	0xbf06fa4c	-0.5272567
63	0x3d7fee66	0.062483214
64	0x3e2bee41	0.16790105
65	0xbda14d70	-0.07876098
66	0x3d7256d7	0.05916485
67	0xbe15ee8a	-0.14641777
68	0x3e066e76	0.13128075
69	0xbe1c8dc1	-0.1528845
70	0x3eb871cb	0.36024317
71	0x3e5c6e16	0.2152637
72	0xbe047650	-0.12935758
73	0x3dc9a311	0.098455556
74	0x3de3019e	0.11084293
75	0xbe8b60a1	-0.2722216
76	0x3e4c506f	0.19952558
77	0x3e99028d	0.2988476
78	0x3d84092a	0.064470604
79	0xbe81ab83	-0.25326166
80	0xbe758074	-0.23974782
81	0xbe80e747	-0.2517645
82	0xbe84691a	-0.25861436
83	0x3e06f88e	0.13180754
84	0x3e1015ae	0.1407077
85	0xbeb9325c	-0.36171234
86	0xbf0e75c9	-0.55648476
87	0x3e22c1a7	0.15894185
88	0xbe2e6d55	-0.17033894
89	0x3d636f62	0.055526145
90	0x3c802e3f	0.015647052
91	0x3e7643e0	0.2404933
92	0xbd72534d	-0.059161473
93	0x3c60a5c7	0.013711399
94	0x3d3249d4	0.04352744
95	0xbe3ca5c1	-0.18422605
96	0x3eaacb8e	0.33358425
97	0x3e86db9e	0.2633943
98	0xbe010d2f	-0.12602685
99	0x3df8c545	0.12147001
100	0xbddcfae8	-0.10790044
101	0xbe0c0504	-0.13673788
102	0x3e7edae6	0.2488819
103	0xbd49f038	-0.049301356
104	0xbdf94530	-0.121713996
105	0x3c9e6f22	0.019340102
106	0xbe4d344b	-0.2003948
107	0xbe62eddf	-0.22161053
108	0x3d1866bb	0.037207346
109	0xbdf19645	-0.1179624
110	0x3db179ce	0.086658105
111	0x3ccbd614	0.024882354
112	0x3bd07715	0.006361852
113	0x3e2395bd	0.1597509
114	0xbe41a6d7	-0.189113
115	0xbbeba33a	-0.007191089
116	0x3e849689	0.258961
117	0xbe43e046	-0.19128522
118	0x3e6deb14	0.23234206
119	0xbe9a91ef	-0.30189463
120	0x3de27ae8	0.11058599
121	0x3e7148a6	0.2356287
122	0x3e01d1a2	0.12677625
123	0x3e2c7d67	0.16844712
124	0x3c982230	0.01857099
125	0x3e843e51	0.25828794
126	0x3e0c95df	0.13729046
127	0x3e1724a2	0.14760068
128	0xbe28b219	-0.16474189
129	0xbe26edab	-0.163016
130	0x3e28792f	0.16452478
131	0x3e121e72	0.14269426
132	0x3f25778e	0.6463555
133	0x3f849e29	1.0360767
134	0x3f4aba67	0.7919068
135	0xbe6a68b1	-0.22891499
136	0x3db831d4	0.08993879
137	0x3e1175f0	0.14205146
138	0xbdb3293b	-0.087480985
139	0xbd3bca87	-0.045847442
140	0x3ddc3570	0.1075238
141	0xbe1c6ec7	-0.15276633
142	0x3ce10a84	0.027470835
143	0x3de06222	0.10956217
144	0x3cd8102e	0.026374903
145	0xbe42b43e	-0.1901407
146	0xbd879bb9	-0.066214986
147	0x3dca313d	0.09872673
148	0xbe1e1691	-0.15438296
149	0x3d93cbb5	0.072165884
150	0xbe8bca18	-0.27302623
151	0xbe16d685	-0.1473027
152	0x3d358ba0	0.04432261
153	0x3d8b40db	0.067994796
154	0xbe3e22ab	-0.18567912
155	0xbdb63b8a	-0.08898075
156	0x3deccede	0.11562894
157	0x3e720f50	0.23638654
158	0x3e116e7b	0.14202301
159	0xbe24c9b1	-0.16092564
160	0x3e06b323	0.13154273
161	0x3e0987f9	0.13430776
162	0x3e1cee15	0.15325196
163	0x3e3670bc	0.17816442
164	0xbdc96095	-0.09832875
165	0x3db87c19	0.09008045
166	0xbdf93b4a	-0.121695116
167	0xbd16452b	-0.036687057
168	0x3dc738d6	0.097276375
169	0x3e777db6	0.24169049
170	0x3d18111e	0.0371257
171	0x3dd7d161	0.10537983
172	0xbd8a5432	-0.0675434
173	0x3c4a3657	0.012342057
174	0xbe6c4cb4	-0.23076135
175	0x3dfa499e	0.122210726
176	0xbc112a81	-0.008860231
177	0xbb4285e5	-0.0029681858
178	0xbc6b3699	-0.014356279
179	0x3e7e506d	0.24835368
180	0x3e09a4e9	0.13441814
181	0xbd74a40c	-0.05972676
182	0x3e3dddf2	0.18541697
183	0x3e33eb94	0.17570335
184	0x3e5b9f1f	0.21447419
185	0x3d6fec83	0.058575165
186	0xbe88bb3e	-0.26705354
187	0x3c3c6a52	0.011499958
188	0xbcc603b4	-0.024171688
189	0x3dc127d7	0.09431427
190	0xbe303d1e	-0.17210814
191	0xbe7a9b60	-0.24473333

conv1.bias f4 [16]
0	0x3ebae09d	0.3649949
1	0x3de465a6	0.111522004
2	0x3ebd7467	0.3700287
3	0x3dae9473	0.08524408
4	0x3e581a27	0.21103726
5	0x3ea4ae82	0.3216439
6	0xbe60d2cc	-0.21955413
7	0x3e84a4a1	0.25906852
8	0xbe1f5d4d	-0.15562935
9	0x3ee0c4b4	0.43900073
10	0xbda0e11b	-0.078554355
11	0xbe8ee572	-0.27909428
12	0x3d3053a7	0.043048527
13	0xbd43ee33	-0.047834586
14	0xbe878a80	-0.26472855
15	0x3e6f930b	0.23395936

conv2.weight f4 [32, 16, 3]
0	0x3dc1d75a	0.09464903
1	0xbc484ec4	-0.01222581
2	0x3e2997fa	0.1656188
3	0xbc130d2a	-0.0089753065
4	0xbd82e6b2	-0.06391658
5	0xbe4621ea	-0.19348875
6	0x3e3e69f0	0.185951
7	0x3e26398f	0.16232894
8	0x3e0fc42b	0.14039676
9	0xbe001fc3	-0.12512116
10	0xbe55538e	-0.20832655
11	0x3e02dc25	0.12779291
12	0xbe0e6793	-0.13906698
13	0x3dccbe1a	0.099971965
14	0xbe43bbee	-0.19114658
15	0x3df7496f	0.12074553
16	0xbe21f33a	-0.1581544
17	0x3d4dfa85	0.050287742
18	0xbdd63ac7	-0.1046043
19	0xbd98fe30	-0.074703574
20	0xbe6b0b89	-0.22953619
21	0x39599ca0	0.0002075308
22	0xbe1ba9d2	-0.152015
23	0xbe29a904	-0.1656838
24	0xbe0fac27	-0.14030515
25	0x3d980d47	0.074244075
26	0xbe0f20f2	-0.13977411
27	0x3c73f610	0.014890209
28	0xbd8f25b9	-0.06989617
29	0x3dc812a3	0.0976918
30	0x3da3ac53	0.079918526
31	0x3d56c00b	0.05242924
32	0xbd8b0197	-0.067874126
33	0xbd41d694	-0.04732378
34	0x3d8df4b0	0.06931436
35	0xbd76bee3	-0.060240638
36	0xbe090e94	-0.13384467
37	0x3b3da752	0.0028938842
38	0xbe2de434	-0.16981584
39	0x3db18f63	0.08669927
40	0x3db44c52	0.088036194
41	0xbd14b1ad	-0.036302257
42	0xbe2aa12a	-0.16663042
43	0x3d9adb73	0.07561388
44	0xbd5d9c22	-0.054103978
45	0x3db9be38	0.090694845
46	0x3dff2081	0.124573715
47	0xbc50fa03	-0.01275492
48	0x3d6238a8	0.055229813
49	0xbc9cc5b9	-0.01913725
50	0x3e5dc407	0.2165681
51	0x3e2009de	0.15628764
52	0xbdb4fc6e	-0.0883721
53	0xbd92cff1	-0.07168568
54	0x3cc4085a	0.023929764
55	0x3dc3c83d	0.09559677
56	0x3ea2d156	0.31800336
57	0xbd3a7b65	-0.045527834
58	0xbc10546a	-0.008809188
59	0x3dcb0187	0.09912401
60	0xbd8b14f7	-0.06791108
61	0xbe001dfd	-0.1251144
62	0x3e02cec9	0.12774195
63	0x3dac4314	0.08411232
64	0x3e65b78a	0.22433296
65	0x3e21b78f	0.15792678
66	0xbd9cc088	-0.0765391
67	0xbdd8f2be	-0.105931744
68	0x3e38fb3d	0.1806459
69	0x3ea2ec20	0.31820774
70	0x3e894998	0.2681396
71	0x3c05a058	0.008155905
72	0x3e14e4c0	0.14540386
73	0xbe60062f	-0.21877359
74	0xbe4c199b	-0.19931643
75	0x3e35fd93	0.17772512
76	0x3e90c682	0.2827645
77	0x3d24ab1a	0.040202238
78	0x3d823dc9	0.06359441
79	0xbe433383	-0.19062619
80	0xbb9d7bab	-0.004806002
81	0xbe2d1a81	-0.16904642
82	0xbfb0e942	-1.3821185
83	0xbe4721bf	-0.19446467
84	0x3df9363d	0.12168548
85	0x3d9bcd45	0.076075114
86	0x3d5941c2	0.053041227
87	0xbd4dbdd3	-0.05022986
88	0xbecc1d48	-0.3986609
89	0xbe37a03b	-0.17932217
90	0x3ce21ed2	0.027602587
91	0x3cbe95ab	0.023264727
92	0x3c4a38f2	0.012342678
93	0xbc005f46	-0.007835215
94	0xbdd0eab5	-0.10201017
95	0x3c92133b	0.017831435
96	0x3de494c6	0.11161189
97	0xbd1d593e	-0.038415186
98	0x3d81284b	0.063065134
99	0xbd9c0696	-0.07618444
100	0xbda59953	-0.08085885
101	0xbe217e8e	-0.15770933
102	0x3de5464b	0.11195048
103	0xbdcbe905	-0.09956554
104	0xbdbfb868	-0.093613446
105	0xbe0c144e	-0.1367962
106	0xbd1abbc3	-0.03777672
107	0xbdf3e54e	-0.11908971
108	0xbc0546b6	-0.008134535
109	0xbdec9a83	-0.11552908
110	0x3c80c7f6	0.015720349
111	0x3d8f60c5	0.07000879
112	0x3d38a6be	0.045080893
113	0xbe21e431	-0.15809704
114	0xbc69ccc1	-0.014270009
115	0xbdd40e9d	-0.1035435
116	0xbdab693f	-0.083696835
117	0x3ca341b5	0.019928792
118	0x3ae00363	0.0017090853
119	0xbe13a68e	-0.14419004
120	0x3dd4626c	0.10370335
121	0x3d08359a	0.033254243
122	0xbc7d6d4f	-0.015467956
123	0xbe216bb2	-0.15763739
124	0x3dc29f5d	0.095030524
125	0xbd4e869a	-0.050421335
126	0xbd04caac	-0.032419845
127	0x3a78cdda	0.00094911235
128	0x3d9bd4ab	0.076089226
129	0xbe0ce051	-0.13757445
130	0x3dad36fb	0.08457752
131	0x3cc553fb	0.024087897
132	0xbdb82f65	-0.08993415
133	0xbe099439	-0.13435449
134	0x3d4f70f9	0.05064485
135	0x3df38dda	0.118922904
136	0xbe18bb35	-0.14915164
137	0x3c4085dd	0.0117506655
138	0xbe00c916	-0.12576708
139	0x3dc099ee	0.0940436
140	0x3c455226	0.0120435115
141	0xbddd6526	-0.10810308
142	0xbd0964b9	-0.033543322
143	0xbe13d806	-0.14437875
144	0xbeb6b0bc	-0.35681713
145	0xbe0e905f	-0.1392226
146	0xbe18b1eb	-0.1491162
147	0xbe122f80	-0.14275932
148	0xbdefa76f	-0.11701857
149	0xbdd5f3bd	-0.1044688
150	0xbe5ee567	-0.21767198
151	0x3d151f20	0.036406636
152	0xbe585278	-0.2112521
153	0xbc58f555	-0.013242085
154	0x3e0389eb	0.1284558
155	0x3d6da0f4	0.058014825
156	0xbd948dff	-0.07253646
157	0xbda95e96	-0.08269994
158	0xbddfdb23	-0.10930469
159	0xbd6fc3a4	-0.058536187
160	0x3e147b2c	0.14500111
161	0x3dc989b3	0.09840717
162	0xbe524fbe	-0.20538232
163	0x3d652b81	0.05594969
164	0x3df77a0d	0.12083826
165	0x3d97e33a	0.07416387
166	0x3e4d64a7	0.20057927
167	0xbd9eb7cd	-0.07749901
168	0xbd62e06f	-0.055389818
169	0x3b989122	0.004655973
170	0x3e200989	0.15628637
171	0xbe6fe673	-0.23427753
172	0x3d007a57	0.031366672
173	0x3d827a08	0.06370932
174	0x3cbb4483	0.022859817
175	0xbb48b6ff	-0.0030626652
176	0xbd8bfe7d	-0.06835649
177	0xbd065503	-0.032795917
178	0xbe4358bc	-0.19076818
179	0xbe7a942e	-0.24470589
180	0x3dbea153	0.09308114
181	0x3dcc03e1	0.09961677
182	0x3e2d3d8f	0.16918014
183	0xba26342b	-0.0006340171
184	0x3c7f9430	0.0155992955
185	0xbdc2e5ec	-0.0951651
186	0x3d3f7c02	0.046749122
187	0x3e267855	0.1625684
188	0x3e44df0d	0.19225712
189	0xbe5a7760	-0.213346
190	0x3d5ab29c	0.05339299
191	0x3dc05c19	0.09392566
192	0x3e24841b	0.16066019
193	0xbd148ef6	-0.03626915
194	0x3df7da1d	0.12102149
195	0x3cd23dda	0.025664259
196	0xbddf5d77	-0.10906499
197	0x3d9f6c74	0.07784358
198	0x3d6cf879	0.05785415
199	0x3e52714f	0.20551036
200	0x3dc2b507	0.095071845
201	0xbd961eee	-0.07330118
202	0xbe0403c9	-0.12892069
203	0xbdcb0e21	-0.09914804
204	0xbe165c9a	-0.14683762
205	0x3cb4a0f4	0.022049405
206	0xbd3fd50d	-0.04683404
207	0xbe788e92	-0.24273136
208	0xbd7061ee	-0.058687143
209	0xbe00bf80	-0.12573051
210	0x3de5df61	0.11224247
211	0x3e56cdc7	0.20976935
212	0x3e1a28c3	0.15054612
213	0xbeea5d5a	-0.45774347
214	0xbf2cf368	-0.6755891
215	0xbf05cb1f	-0.52263063
216	0x3d77c4d7	0.060490455
217	0xbcdbb808	-0.026821151
218	0xbe1af6f8	-0.15133274
219	0xbdd8713d	-0.105684735
220	0xbdfe0d6b	-0.12404903
221	0xbd729a77	-0.05922934
222	0xbe2bbb56	-0.16770682
223	0xbd951cb5	-0.07280866
224	0xbd390b81	-0.045176987
225	0xbcf679f6	-0.030087452
226	0x3d8801ff	0.06641006
227	0xbcf92cd5	-0.030416885
228	0x3e63e495	0.22255166
229	0x3e3f506a	0.1868302
230	0x3eb0f5d8	0.34562564
231	0xbbc1ddc7	-0.0059163305
232	0xbe6b2831	-0.2296455
233	0xbe4115bb	-0.18855946
234	0x3cbcf35b	0.02306526
235	0x3d60ddbc	0.054898962
236	0xbe14b922	-0.14523748
237	0x3e38ba31	0.18039776
238	0x3c1cbe8a	0.009566912
239	0x3e26246c	0.16224831
240	0xbe6e1a1a	-0.23252144
241	0x3d8cd04d	0.06875668
242	0xbdd680ff	-0.10473823
243	0xbdfd9d9a	-0.12383576
244	0x3d32e311	0.04367358
245	0x3e8867a4	0.26641572
246	0xbd5b64d1	-0.053562943
247	0x3d6d53a2	0.057941087
248	0x3e0f06c9	0.13967432
249	0xbdc0276d	-0.0938252
250	0xbdd8adec	-0.10580048
251	0xbcc814e2	-0.02442402
252	0x3c1b7601	0.009488584
253	0x3b215d2e	0.002462219
254	0x3d80195b	0.06254836
255	0x3c810e31	0.015753837

conv2.bias f4 [32]
0	0x3df77418	0.1208269
1	0x3dbfb72f	0.093611114
2	0xbda8da15	-0.08244721
3	0x3bd61664	0.006533431
4	0x3e25daaa	0.16196695
5	0x3e35e5ec	0.1776349
6	0xbe1add51	-0.15123488
7	0x3d0cd6e4	0.034384623
8	0x3da1d22b	0.079014145
9	0x3e0d1e5f	0.13781117
10	0x3e1d29be	0.15347955
11	0x3e4ce1b8	0.2000798
12	0x3dc3f129	0.09567482
13	0xbcf6106c	-0.030037127
14	0x3e7dfb73	0.24802952
15	0xbde7f404	-0.11325839
16	0xbb95d35a	-0.004572314
17	0xbb37ebd1	-0.0028064142
18	0x3e2626c1	0.16225721
19	0x3a11d163	0.0005562512
20	0x3df2efc8	0.11862141
21	0xbd629bf2	-0.055324502
22	0x3e890e0a	0.26768523
23	0x3e1c84f1	0.15285088
24	0xbe3beff5	-0.18353255
25	0x3d496e9f	0.049177762
26	0xbcca8a6a	-0.024724204
27	0x3e3d6205	0.18494423
28	0xbcb7b9dd	-0.022427494
29	0xbe90702b	-0.28210577
30	0xbe1f8fdb	-0.1558222
31	0x3dd281e7	0.10278683

conv3.weight f4 [64, 32, 3]
0	0x3da6ec80	0.081505775
1	0x3ddaca27	0.10683089
2	0x3e0669ce	0.13126299
3	0xbeda5977	-0.4264638
4	0xbc5ebf9a	-0.013595486
5	0xbe17a9e5	-0.14810903
6	0x3daf4bfe	0.08559416
7	0xbd24e9b2	-0.04026193
8	0xbd945ff8	-0.07244867
9	0x3c076a8d	0.00826515
10	0x3eafcce4	0.34336007
11	0x3c9feea8	0.01952298
12	0xbcb41d64	-0.02198667
13	0xbdea2a73	-0.11433878
14	0xbe223bd3	-0.15843134
15	0xbceaa437	-0.028642757
16	0xbc0620bf	-0.008186518
17	0x3ecfae7e	0.40562814
18	0xbd05d761	-0.032676104
19	0xbd84d3b4	-0.06485692
20	0x3d712e54	0.058882073
21	0x3daa5603	0.08317187
22	0xbd9ff2b7	-0.07809966
23	0xbba7ab5e	-0.005116864
24	0x3aaa7808	0.0013005743
25	0xbe92ca7f	-0.28670117
26	0xbe3e1318	-0.18561971
27	0xbe53195a	-0.2061514
28	0xbe991833	-0.29901275
29	0xbeba4b49	-0.36385563
30	0xbe93162d	-0.28727856
31	0xbe7e2d69	-0.2482201
32	0xbefe5cc0	-0.49680138
33	0x3de0354f	0.10947668
34	0x3e000da5	0.12505205
35	0xbd2acef5	-0.041701276
36	0xbddd1196	-0.1079437
37	0x3d8dc3d5	0.069221176
38	0xbcfa6e1b	-0.03057008
39	0x3cc85aa5	0.024457285
40	0x3cc2226c	0.023698054
41	0xbe067651	-0.13131072
42	0xbdd60e6d	-0.1045197
43	0x3de4abf6	0.111656114
44	0x3caa3272	0.020776007
45	0xbdc4c68e	-0.09608184
46	0xbd4b76bb	-0.049673777
47	0x3cb7ecdc	0.02245181
48	0xbe251ef3	-0.16125087
49	0xbe4eb6a7	-0.20186864
50	0xbcc96b06	-0.024587166
51	0xbe053f0a	-0.13012329
52	0x3ded53d3	0.11588254
53	0x3d2d10a2	0.04225219
54	0xbe04111b	-0.1289715
55	0xbe108c29	-0.14115967
56	0x3bf174d4	0.0073686633
57	0x3c804d59	0.015661882
58	0x3dd2be0d	0.102901556
59	0x3e12a727	0.14321576
60	0x3da1fc3e	0.079094395
61	0xbc37b679	-0.011212938
62	0x3d88cdc2	0.0667987
63	0xbdfe2b28	-0.12410575
64	0xbc48cb75	-0.012255539
65	0xbcdbe5b3	-0.026842928
66	0x3d38a958	0.045083374
67	0x3e3053dc	0.1721949
68	0x3df853d7	0.12125366
69	0x3de3ba50	0.11119521
70	0xbbc0b20f	-0.0058806012
71	0x3e2f9a7b	0.17148773
72	0xbf0a974c	-0.5413711
73	0xbee5810c	-0.44825017
74	0xbe16c3f9	-0.14723195
75	0xbe890a51	-0.26765683
76	0xbe9c8f4d	-0.3057808
77	0xbebecac1	-0.37264064
78	0xbaf616bf	-0.0018775089
79	0xbd7c62dc	-0.061617717
80	0x3d5f5b89	0.054530654
81	0xbd9050cc	-0.07046661
82	0x3f076d5d	0.5290125
83	0x3e4becc9	0.19914545
84	0x3bcef39e	0.0063156625
85	0x3dbb2b87	0.091391616
86	0xbd5c37ae	-0.053764038
87	0xbd7cf7a3	-0.061759602
88	0xbe018f04	-0.12652212
89	0x3d9fa723	0.07795551
90	0xbe16c913	-0.14725141
91	0xbd307508	-0.04308036
92	0xbe16133a	-0.14655772
93	0xbd24b015	-0.040206987
94	0x3d668276	0.05627676
95	0x3c96d94e	0.018414166
96	0xbd327bec	-0.043575212
97	0x3e1ce15d	0.15320344
98	0x3e203968	0.15646899
99	0xbcece028	-0.02891548
100	0x3dce28b8	0.1006636
101	0x3dcd79ff	0.100330345
102	0xbcfa9b8a	-0.030591745
103	0x3cdfe9fb	0.02733325
104	0xbd59f1b4	-0.05320902
105	0x3d068005	0.032836933
106	0xbdc8be72	-0.098019496
107	0xbce21a25	-0.027600357
108	0xbd000071	-0.03125042
109	0x3d4db4c8	0.050221235
110	0xbcac7c80	-0.02105546
111	0xbc98fee8	-0.018676236
112	0xbf55f487	-0.83576244
113	0x3e1b05d4	0.15138942
114	0xbdd8ce0c	-0.10586175
115	0x3d358001	0.044311527
116	0xbe192b10	-0.14957833
117	0x3dd30964	0.103045255
118	0xbc7cf7a0	-0.015439898
119	0xbc5f2cfe	-0.013621567
120	0xbc5fb890	-0.013654843
121	0xbf1f86f9	-0.62315327
122	0xbedfca49	-0.4370902
123	0xbe1e0349	-0.1543094
124	0xbe9e278e	-0.30889553
125	0xbe98eaaf	-0.2986655
126	0x3cf6da89	0.030133503
127	0x3c2cefca	0.010555217
128	0xbd9dc7ce	-0.07704125
129	0x3d6eac9a	0.058270074
130	0xbc0fa11c	-0.008766439
131	0x3dddf2ed	0.1083735
132	0x3d8d3671	0.068951495
133	0xbc9944b7	-0.018709524
134	0xbe066fe0	-0.13128614
135	0x3d6e238c	0.05813937
136	0xbcbbd066	-0.02292652
137	0x3d02b9be	0.03191542
138	0x3dc46a22	0.09590556
139	0xbc3376e6	-0.010953641
140	0x3ded5ae3	0.11589601
141	0xbe21b82c	-0.15792912
142	0xbe433bd9	-0.19065799
143	0xbea36948	-0.3191626
144	0xbcb0f28d	-0.021600032
145	0xbd6ee665	-0.05832519
146	0xbe498e6d	-0.19683237
147	0xbe2cac8e	-0.168627
148	0xbec25584	-0.37955868
149	0xbf042974	-0.5162575
150	0xbe4efdaa	-0.20213953
151	0xbe89c108	-0.26905084
152	0xbe04f225	-0.12982996
153	0xbb0798a1	-0.002069034
154	0x3d9a8725	0.07545308
155	0x3e0ba055	0.1363538
156	0xbbadec7d	-0.0053077326
157	0xbca8ba73	-0.020596718
158	0xbcb92617	-0.02260117
159	0x3c6268fe	0.013818977
160	0xbd4c7b24	-0.049922124
161	0xbe1230cd	-0.14276429
162	0xbd2c7ef0	-0.042113245
163	0x3dcc749b	0.09983178
164	0x3dddef27	0.1083663
165	0xbce88017	-0.02838139
166	0x3b1f4db2	0.0024307785
167	0x3e75a63f	0.23989199
168	0xbe170c44	-0.14750773
169	0xbd7bdf2a	-0.061492123
170	0x3cb27b27	0.02178724
171	0xbd868719	-0.065687366
172	0xbe90d6de	-0.2828893
173	0xbea36dbb	-0.31919655
174	0xbda65e99	-0.08123512
175	0xbc83c7e3	-0.016086524
176	0x3c28500b	0.01027299
177	0x3e45f446	0.19331464
178	0x3edd9598	0.43278193
179	0x3e6aa01d	0.22912641
180	0x3cb0df11	0.021590741
181	0xbd747bac	-0.059688255
182	0x3c98466a	0.018588264
183	0xbe131e21	-0.14366962
184	0xbcecda33	-0.02891264
185	0xbcff3280	-0.03115201
186	0xbda549d6	-0.08070724
187	0xbd8c9a0e	-0.06865321
188	0xbe1534a0	-0.14570856
189	0xbd4aafa9	-0.04948393
190	0x3da89149	0.08230836
191	0x3df0492c	0.117327064
192	0x3cc54215	0.024079362
193	0x3cb38b86	0.021917116
194	0xbe4c4935	-0.19949801
195	0xbd2d8c58	-0.04237017
196	0x3cc96257	0.024583025
197	0x3d8e7143	0.06955197
198	0x3ccd04f5	0.025026778
199	0x3d7741fb	0.06036566
200	0x3d5dfc88	0.05419591
201	0x3e51fe3d	0.2050714
202	0x3daa5396	0.08316724
203	0xbcb834de	-0.022486147
204	0xbdcbca33	-0.09950676
205	0x3a32bb4e	0.00068180717
206	0xbd24b927	-0.040215638
207	0xba65c025	-0.00087642885
208	0x3e0d61b5	0.13806804
209	0x3d8de636	0.06928675
210	0x3a9555b5	0.001139334
211	0x3d10b529	0.035329018
212	0xbd76aca7	-0.060223248
213	0xbc326048	-0.010887213
214	0xbcb979cf	-0.02264109
215	0xbe609113	-0.21930341
216	0x3dfa8f00	0.12234306
217	0xbdaf71da	-0.08566637
218	0x3e05743e	0.13032624
219	0x3dc07343	0.093969844
220	0x3ddc4855	0.10755984
221	0x3e5dc63d	0.21657653
222	0x3c0e0550	0.008668259
223	0x3d788f23	0.06068338
224	0x3d0231fa	0.031785943
225	0x3d44a7f3	0.04801173
226	0xbcc49676	-0.023997527
227	0xbe3ca93c	-0.18423933
228	0xbcd1504c	-0.025550984
229	0xbd6ab500	-0.05730152
230	0x3dd37e9f	0.103268854
231	0x3e132ea1	0.14373256
232	0xbdaf3bc7	-0.085563235
233	0xbe591156	-0.2119802
234	0xbd289432	-0.041156955
235	0xbd5f75d9	-0.054555748
236	0xbe03add6	-0.12859282
237	0x3e4f18e9	0.20224346
238	0x3e072a05	0.13199623
239	0x3db659e0	0.08903861
240	0xbcbad825	-0.022808144
241	0x3e7564c4	0.2396422
242	0x3c666563	0.014062258
243	0x3e27b5ed	0.16377993
244	0x3a4306a0	0.0007439647
245	0xbc50277a	-0.012704724
246	0x3e060d46	0.13091001
247	0x3e0623f7	0.13099657
248	0x3dbc789e	0.092026934
249	0x3d435de1	0.04769695
250	0xbe0a75b1	-0.13521458
251	0xbe572cea	-0.21013227
252	0x3d0f813a	0.03503535
253	0xbdf17db5	-0.11791555
254	0xbe24cd00	-0.16093826
255	0xbd4f7df8	-0.050657243

conv3.bias f4 [64]
0	0x3e01ca75	0.12674887
1	0x3e112be6	0.14176902
2	0xbe2e43a2	-0.17017987
3	0x3d83eb43	0.06441357
4	0x3c8e6eb6	0.017386775
5	0xbc7956c5	-0.015218441
6	0x3db7bcc1	0.08971549
7	0xbd874e9a	-0.06606789
8	0xbc7299e5	-0.014807199
9	0x3e3c3314	0.1837886
10	0x3e1642ec	0.14673966
11	0xbdcac263	-0.099003576
12	0x3d26dec5	0.040739793
13	0x3a07c16f	0.0005178665
14	0x3e01aacd	0.12662812
15	0x3d988cd2	0.07448734
16	0x3da5afa2	0.0809014
17	0x3d422e97	0.047407713
18	0xbe9adb0c	-0.30245245
19	0xbe312f63	-0.17303233
20	0x3dcc0bc2	0.0996318
21	0xbe5542cf	-0.20826267
22	0xbe1c5499	-0.15266646
23	0x3de327ca	0.110915735
24	0xbe7f84d4	-0.24953014
25	0x3c67585a	0.014120186
26	0xbe2f8e21	-0.17144062
27	0xbd5b594e	-0.053551964
28	0x3de67e8b	0.11254605
29	0xbdd10f47	-0.10207992
30	0xbdd127ea	-0.10212691
31	0x3b8246a4	0.003975706
32	0x3e10dda2	0.14147046
33	0x3db441bf	0.088016026
34	0xbe35d359	-0.17756404
35	0xbc88ff4e	-0.016723301
36	0x3e03faea	0.12888685
37	0xbe854487	-0.26028845
38	0xbccb0f31	-0.024787517
39	0x3dfc7bef	0.12328326
40	0xbe66115f	-0.22467564
41	0x3e34b42a	0.17646852
42	0x3e103ec4	0.14086443
43	0xbbf96dac	-0.007611951
44	0xbde020f8	-0.10943788
45	0x3e4031bb	0.1876897
46	0x3e7c9b69	0.2466866
47	0x3e59616b	0.21228568
48	0x3e72ef9e	0.23724219
49	0xbd35d8ab	-0.044396084
50	0xbe2e66f6	-0.17031464
51	0xbe71b40b	-0.23603837
52	0x3d474e3f	0.048658606
53	0x3c6f6532	0.014611529
54	0x3d81d096	0.06338613
55	0x387b8a68	5.9971964e-05
56	0x3e0e484f	0.13894771
57	0x3dfa031b	0.122076236
58	0x3dc32b42	0.09529735
59	0xbd34d858	-0.044151634
60	0xbe0136b4	-0.12618524
61	0x3d6aace2	0.05729378
62	0xbe12d697	-0.14339672
63	0xbe7b8997	-0.24564205

fc1.weight f4 [256, 256]
0	0x3e43f792	0.1913741
1	0xbe037d63	-0.128408
2	0xbda84b9d	-0.08217547
3	0xbdf83c85	-0.12120918
4	0x3f1b261e	0.6060504
5	0x3e794119	0.24341239
6	0x3e67fd84	0.22655302
7	0x3e033f27	0.1281706
8	0x3e127925	0.14304025
9	0xbe3b1509	-0.18269743
10	0x3e40e836	0.18838581
11	0x3e9829e3	0.29719457
12	0x3e857f89	0.26073864
13	0x3e13011b	0.1435589
14	0xbba92017	-0.005161296
15	0xbe3de053	-0.18542604
16	0xbf0cee58	-0.55051184
17	0xbe08aa1e	-0.13346145
18	0xbe14dbf3	-0.14537029
19	0xbe478213	-0.19483213
20	0xbe829331	-0.25502923
21	0xbe3444b5	-0.17604335
22	0xbe29f94d	-0.16599007
23	0xbe6e1150	-0.23248792
24	0xbe8d37c6	-0.27581614
25	0xbe038daf	-0.12847017
26	0xbddcdb1a	-0.10783978
27	0x3d045638	0.032308787
28	0x3e793640	0.24337101
29	0xbeb26bd3	-0.34847888
30	0x3d2ba263	0.04190291
31	0x3de565ba	0.112010434
32	0xbe25ea5c	-0.16202682
33	0xbe1361a5	-0.14392717
34	0xbe933c55	-0.28756967
35	0xbea2bc7b	-0.31784424
36	0x3dad8c21	0.08473993
37	0x3e8c8cff	0.2745132
38	0x3eb60346	0.35549372
39	0x3dba06fe	0.09083365
40	0xbd9fdb63	-0.078055166
41	0x3afbefad	0.0019221209
42	0xbc4e9335	-0.012608339
43	0xbdaec8ef	-0.08534419
44	0x3d5fa065	0.054596324
45	0xbd6ca538	-0.057774752
46	0x3c116676	0.008874526
47	0x3d485d97	0.04891738
48	0xbf0fa8ef	-0.5611715
49	0xbe80bb66	-0.25142974
50	0xbdd300f8	-0.10302919
51	0x3d9973e0	0.074928045
52	0xbe2f4c29	-0.17118897
53	0x3dc8aa5b	0.09798118
54	0x3e06d512	0.13167217
55	0x3cc6a755	0.024249712
56	0xbd57fcac	-0.0527312
57	0xbc472c1c	-0.012156513
58	0xbd77f6fa	-0.06053827
59	0xbd2f9689	-0.04286817
60	0xbe46c81e	-0.19412276
61	0x3d06051f	0.032719728
62	0x3d8f31b1	0.069919
63	0x3b7f1b8b	0.003892633
64	0xbecb5d69	-0.39719704
65	0x3df283c9	0.11841542
66	0x3eb0ee0e	0.3455662
67	0x3dfd003d	0.12353561
68	0xbd639b42	-0.055567987
69	0x3dfa2647	0.12214332
70	0xbc09aad4	-0.008402545
71	0x3db19339	0.086706586
72	0x3dea8231	0.11450613
73	0xbe113f8f	-0.14184402
74	0x3dafa8a6	0.08577089
75	0x3dd8242e	0.10553776
76	0x3dc4b654	0.09605089
77	0xbd8725cc	-0.06599006
78	0xbc73e6a0	-0.014886528
79	0x3e0dbfa9	0.13842644
80	0x3e2708d8	0.16311967
81	0xbe251680	-0.16121864
82	0x3dbc8771	0.09205521
83	0x3df2ab76	0.1184911
84	0x3e9f84b0	0.3115592
85	0x3e13c370	0.14430022
86	0xbe665f14	-0.22497207
87	0x3d1dbe6d	0.038511682
88	0xbd51639d	-0.05112039
89	0xbc11e6a5	-0.008905088
90	0x3d0ed10a	0.034867324
91	0x3d83249d	0.06403468
92	0xbe8a8d9f	-0.27061173
93	0x3d0bd6b2	0.034140296
94	0xbd483a9b	-0.048884016
95	0xbe33b87d	-0.17550845
96	0x3d969ead	0.07354484
97	0xbd31d885	-0.04341938
98	0x3c5beffc	0.013423916
99	0x3ddddcc3	0.108331226
100	0x3d7e3667	0.0620636
101	0xbcdc0009	-0.026855486
102	0xbdc6d123	-0.097078584
103	0x3dc6acf7	0.09700959
104	0xbda6ca3e	-0.081440434
105	0x3e8c4ccc	0.2740234
106	0x3e34bdba	0.176505
107	0x3e5f6e4e	0.21819422
108	0xbd4e5512	-0.050374098
109	0x3d35b85b	0.04436527
110	0x3d5ed9de	0.054406993
111	0xbd7b63ba	-0.061374404
112	0x3caf03e8	0.021364167
113	0x3cbbc5b4	0.02292142
114	0xbc094b5f	-0.008379786
115	0x3ddaefc4	0.10690263
116	0x3e9cf1b1	0.30653146
117	0x3e19192d	0.1495101
118	0xbe04adb8	-0.12956893
119	0x3e0741de	0.1320872
120	0x3d7ba8c2	0.061440237
121	0x3cb491ba	0.022042144
122	0x3c76cec0	0.0150639415
123	0x3b2bd347	0.002621846
124	0x3e0fcc71	0.14042832
125	0x3c5c42c6	0.013443654
126	0xbdcbdeb2	-0.09954585
127	0x3d60fa04	0.054925933
128	0xbe7ae760	-0.24502325
129	0xbe5b1fc7	-0.21398841
130	0xbe98d83a	-0.29852468
131	0xbe2ff100	-0.17181778
132	0xbf09b28a	-0.53788054
133	0xbcb8d6a0	-0.022563279
134	0xbe68c501	-0.22731401
135	0xbe9a8c23	-0.3018504
136	0xbc3ac44d	-0.011399341
137	0x3df7d26a	0.1210068
138	0x3d7d6d28	0.061871678
139	0x3d8ab2d4	0.0677239
140	0xbf0ef419	-0.55841213
141	0xbf0121c2	-0.50442135
142	0xbe3a3876	-0.181856
143	0xbde17142	-0.1100793
144	0x3d795ce5	0.060879607
145	0x3d91a6d7	0.071119
146	0x3e543b88	0.20725834
147	0x3e14affc	0.14520258
148	0x3c76a0d7	0.015052996
149	0xbcd89328	-0.026437357
150	0x3ce0d6cd	0.027446175
151	0x3e32bd92	0.17455128
152	0xbec5b590	-0.38615084
153	0x3de78a3d	0.11305664
154	0x3e1a34c0	0.15059185
155	0x3c60942c	0.013707202
156	0x3d8e43d1	0.06946529
157	0xbd31f372	-0.04344506
158	0xbc7b68fc	-0.015344854
159	0xbdaccb82	-0.084372535
160	0x3de5d375	0.11221973
161	0xbd324e48	-0.043531686
162	0x3d90d784	0.07072356
163	0x3c2f7334	0.010708619
164	0xbe638da5	-0.22222002
165	0xbbb5cbc1	-0.005547971
166	0x3df7f7a8	0.121077836
167	0x3d6be891	0.05759484
168	0x3d289423	0.0411569
169	0x3dd95a04	0.10612872
170	0x3e8d4874	0.2759434
171	0x3ea9d7b4	0.3317238
172	0x3ca7ae52	0.020468865
173	0xba0c4d9b	-0.000535214
174	0x3e929e20	0.28636265
175	0x3e9289e4	0.28620827
176	0x3d81b771	0.06333817
177	0x3c8450e7	0.016151858
178	0xbcb6b870	-0.022304744
179	0x3e869ec7	0.26293012
180	0x3e2744db	0.1633486
181	0x3ef8b0a1	0.48572257
182	0x3f02c936	0.51088274
183	0xbd538dd5	-0.051648933
184	0x3f3b86de	0.73252666
185	0x3f120f45	0.5705455
186	0x3e2e8e02	0.17046359
187	0x3f0d18a8	0.5511575
188	0xbe3590e0	-0.17731047
189	0xbec8b74b	-0.3920234
190	0xbf01765a	-0.50571215
191	0xbec18cb5	-0.37802663
192	0xbdbe7c31	-0.093010314
193	0xbd886053	-0.066589974
194	0x3e9a0041	0.3007832
195	0xbcf63900	-0.030056477
196	0x3cabdb18	0.020978495
197	0x3d2034f2	0.039112993
198	0x3cfd33f8	0.03090857
199	0x3cf1dd17	0.02952437
200	0xbde6265c	-0.11237785
201	0xbe00938a	-0.12556282
202	0x3b5d70d1	0.0033789168
203	0xbd0c0a04	-0.03418924
204	0x3c8ac5b9	0.016939985
205	0x3d6550a0	0.055985093
206	0xbdcac9d5	-0.09901778
207	0x3cf29496	0.029611867
208	0x3cb31d48	0.021864548
209	0x3f1099a9	0.56484467
210	0x3d428c7b	0.047497254
211	0x3e852aee	0.26009315
212	0xbe5a64cf	-0.21327518
213	0xbf13320b	-0.57498235
214	0xbf13479e	-0.57531154
215	0xbe7e9f60	-0.24865484
216	0xbca54902	-0.020176414
217	0xbe03b53c	-0.12862104
218	0xbda73c86	-0.08165841
219	0xbe69a81b	-0.22818033
220	0xbe85bb61	-0.2611952
221	0x3efc0d29	0.4922879
222	0xbe9ebd89	-0.3100398
223	0xbf0b2b52	-0.54362977
224	0xbc5478ac	-0.012968224
225	0x3c4e9839	0.012609535
226	0x3df9b5ae	0.12192856
227	0xbd863a44	-0.06554082
228	0xbca2bce1	-0.019865455
229	0xbcb43397	-0.021997256
230	0x3d7217f2	0.059104867
231	0xbde4078b	-0.11134251
232	0xbe0f50e3	-0.139957
233	0x3d6c76ab	0.057730358
234	0x3d713caf	0.058895763
235	0xbe2e4928	-0.17020094
236	0xbee3e76d	-0.445125
237	0x3ce0cefe	0.027442452
238	0xbe10ec14	-0.14152557
239	0x3de6fb02	0.11278345
240	0x3e02595d	0.12729402
241	0xbeba7226	-0.36415213
242	0xbd3bb0ce	-0.04582291
243	0x3e4d921a	0.20075265
244	0xbf3af8fb	-0.73036164
245	0x3d4e3dde	0.05035197
246	0x3e03a5c6	0.12856206
247	0xbe11fa8e	-0.14255735
248	0xbec889a0	-0.391675
249	0xbdc0eb2d	-0.09419856
250	0x3d024882	0.03180743
251	0xbcbb10eb	-0.022835216
252	0xbd2276d9	-0.039664123
253	0x3c574967	0.013140059
254	0x3ce3941e	0.027780589
255	0x3d397e7d	0.045286644

fc1.bias f4 [256]
0	0x3db1d8fb	0.08683964
1	0x3bd53055	0.006506006
2	0xbdac0b5f	-0.08400606
3	0xbc2ea263	-0.010658833
4	0x3da2791e	0.079332575
5	0x3e0e7499	0.13911666
6	0xbd962c20	-0.07332635
7	0x3c8c1303	0.01709891
8	0xbe4294df	-0.19002102
9	0x3d8ad4a7	0.067788415
10	0x3d5ef327	0.054431107
11	0x3ded61aa	0.115908936
12	0x3e03a812	0.12857082
13	0x3c06c037	0.0082245385
14	0xbc6d0e45	-0.014468734
15	0x3d59ed6b	0.053204935
16	0xbd8b641b	-0.06806203
17	0xbd7b4c51	-0.061352078
18	0xbe0cca89	-0.13749136
19	0x3d8c1ef0	0.06841838
20	0x3de953d8	0.11392945
21	0xbe1992ff	-0.14997481
22	0xbde8f192	-0.11374201
23	0xbd8d2828	-0.06892425
24	0xbd9ec72b	-0.07752832
25	0xbd54ed1b	-0.051983934
26	0x3cc7a4c4	0.024370559
27	0xbd0b86ee	-0.034064226
28	0xbcd2a447	-0.0257131
29	0x3dddc7a4	0.10829094
30	0xbd545ddf	-0.051847335
31	0xbd8b8eab	-0.06814321
32	0xbd89a9c0	-0.0672183
33	0x3c1bc472	0.009507285
34	0x3dfa044d	0.122078516
35	0xbd5c1514	-0.05373104
36	0xbd949ad7	-0.07256096
37	0x3e172f26	0.1476408
38	0xbca65e43	-0.02030862
39	0x3dbe3709	0.09287841
40	0xbc22231b	-0.009896065
41	0xbd00862d	-0.03137796
42	0xbc8733fd	-0.016504282
43	0xbcdbdde1	-0.026839199
44	0xbc0b6672	-0.008508312
45	0x3d5d974d	0.05409937
46	0xbe08b754	-0.13351184
47	0x3d77db1e	0.0605117
48	0x3d8b4175	0.06799594
49	0x3d98813f	0.07446527
50	0x3c9a8424	0.018861838
51	0x3d69c280	0.057070255
52	0x3dfd8887	0.12379556
53	0xbc8540e6	-0.016266298
54	0xbe31da33	-0.17368393
55	0x3dbf3125	0.093355455
56	0x3dee2baa	0.11629422
57	0x3d0bd14d	0.03413515
58	0xbd48ec9c	-0.049053773
59	0x3e0588db	0.13040487
60	0xba0c2be2	-0.0005347115
61	0xbdace8c8	-0.08442837
62	0xbccb1e6f	-0.024794785
63	0xbd0719d0	-0.0329836
64	0xbd50ae52	-0.050947495
65	0x3c4ef8cd	0.012632561
66	0x3d070dd5	0.032972176
67	0xbc6a3e94	-0.014297146
68	0x3dc704c7	0.09717708
69	0xbd0123ee	-0.031528406
70	0x3ce2783d	0.027645225
71	0x3da45a32	0.08025016
72	0x3d14b3c0	0.036304235
73	0xbcb9cfb3	-0.022682047
74	0x3d3f171c	0.0466529
75	0x3e239632	0.15975264
76	0xbb8307c2	-0.0039987275
77	0xbd964e32	-0.07339133
78	0x3d5e6faa	0.05430571
79	0x3e126363	0.14295726
80	0x3ded15ed	0.11576448
81	0x3e0422e0	0.12903929
82	0x3d6a71ff	0.05723762
83	0x3d421e57	0.047392216
84	0x3e27e918	0.16397512
85	0xbd406e7e	-0.046980374
86	0x3dfd3345	0.123632945
87	0x3d8c02de	0.068364844
88	0x3db725d9	0.08942766
89	0xbcb4e8c1	-0.022083642
90	0xbb3f22d2	-0.0029165042
91	0x3e1139ff	0.1418228
92	0x3e053340	0.13007832
93	0xbcd07542	-0.025446538
94	0xbdaaae1d	-0.08333991
95	0x3d67a454	0.0565532
96	0x3d8b8a04	0.06813434
97	0x3d9eb119	0.077486224
98	0xbd3874b2	-0.045033164
99	0x3db5c8be	0.08876179
100	0xbcadbcc6	-0.021208178
101	0x3e0cb238	0.1373986
102	0xbd9a83b4	-0.07544652
103	0x3ba56244	0.0050471146
104	0x3d6deccb	0.05808715
105	0x3d66ba4d	0.056330014
106	0xbbd0d2f3	-0.0063728034
107	0x3e068c66	0.13139495
108	0x3daba193	0.08380427
109	0x3da19d51	0.07891334
110	0x3e16787b	0.14694397
111	0x3d8b46fc	0.068006486
112	0x3db6bf3a	0.08923192
113	0x3c3495b3	0.011022019
114	0xbcb979eb	-0.022641143
115	0xbd001cf7	-0.031277623
116	0x3dcbc9bd	0.09950588
117	0xbdb34004	-0.087524444
118	0xbdea2adf	-0.11433958
119	0x3c74db71	0.014944897
120	0x3dae14e7	0.085000806
121	0xbd96f77a	-0.07371421
122	0x3c8e8877	0.017399056
123	0xbd8a8381	-0.06763364
124	0xbd90bc85	-0.07067207
125	0x3e21a57a	0.1578578
126	0xbbfe254f	-0.0077559124
127	0x3e11e438	0.14247215
128	0x3deff752	0.117170945
129	0x3d309fa2	0.043120988
130	0xbda9e9d1	-0.0829655
131	0x3cb51bf9	0.022108065
132	0xbdb23300	-0.08701134
133	0xbd308560	-0.043095946
134	0x3b07e06b	0.0020733129
135	0xbd7c8e38	-0.061659068
136	0x3bbfb8c7	0.0058508846
137	0xbdfa9ed9	-0.12237329
138	0x3de62bda	0.11238833
139	0x3a6ea148	0.0009103012
140	0x3e296255	0.16541417
141	0x3bf7d6bc	0.00756344
142	0xbd18518e	-0.03718715
143	0xbdf82b7e	-0.121176705
144	0x3d4068ba	0.046974875
145	0xbdf73963	-0.120714925
146	0x3d8e173c	0.06938025
147	0xbc129d64	-0.008948658
148	0x3d1e2813	0.038612437
149	0x3db4c4f5	0.08826629
150	0xbda0944b	-0.07840785
151	0xbd6f0cd1	-0.058361832
152	0xbdd49f40	-0.10381937
153	0x3c12f2fa	0.008969063
154	0x3e043624	0.12911278
155	0x3daf72c2	0.0856681
156	0x3dc200e0	0.09472823
157	0xbd37fb3b	-0.044917326
158	0x3e16346e	0.14668438
159	0x3d39f448	0.04539898
160	0x3db1d52e	0.08683239
161	0xbd2f87ae	-0.042854004
162	0x3ded5928	0.11589271
163	0x3d4c9afc	0.049952492
164	0x3cd86548	0.026415482
165	0xbdefab34	-0.11702576
166	0x3e126511	0.14296366
167	0xbd381cc0	-0.044949293
168	0xbc98910f	-0.018623857
169	0x3d89935f	0.06717562
170	0xbe1512b2	-0.14557913
171	0xbcd35c49	-0.02580084
172	0x3dabd370	0.08389938
173	0x3ced5674	0.028971888
174	0x3cfa16da	0.030528475
175	0xbc981581	-0.018564941
176	0x3db29ad2	0.08720936
177	0x3d680151	0.05664188
178	0x3dfd4006	0.12365727
179	0x3e4275ea	0.18990293
180	0x3cbd6b19	0.023122357
181	0xbdbe8990	-0.09303582
182	0x3d7a3a65	0.061090846
183	0xbbff12ec	-0.007784238
184	0xbd042eb9	-0.03227112
185	0x3d87b85c	0.06626961
186	0xbd36f39c	-0.044665918
187	0xbdf7aa05	-0.120929755
188	0x3dc4def0	0.096128345
189	0xbdd35a34	-0.10319939
190	0xbd5e112b	-0.05421559
191	0xbd1a8194	-0.03772123
192	0x3de5354a	0.11191805
193	0x3da1b76e	0.078963146
194	0x3e190f3d	0.14947219
195	0x3e17cc20	0.14823961
196	0xbe9f91c9	-0.31165913
197	0xbd570d2a	-0.05250279
198	0x3db0183f	0.085983746
199	0xbb12ba70	-0.0022388957
200	0x3e02f26a	0.12787786
201	0x3dcfc7ef	0.10145556
202	0xbca8c9f3	-0.02060411
203	0xbd371057	-0.044693317
204	0xbe891947	-0.26777098
205	0x3d95900d	0.07302866
206	0x3d628795	0.055305082
207	0x3e0a64bd	0.13514991
208	0x3d781279	0.060564492
209	0x3c0c12a2	0.008549364
210	0x3c729f98	0.014808558
211	0xbdae42d7	-0.085088424
212	0xbd9511c0	-0.07278776
213	0xbd1eabae	-0.038737945
214	0x3cc88035	0.024475196
215	0x3d8f5751	0.06999076
216	0x3e1d7ea1	0.15380336
217	0x3dc06137	0.09393542
218	0x3d7ecb46	0.062205575
219	0x3d8fdfb7	0.07025092
220	0x3a583171	0.00082471134
221	0x3cff52c6	0.0311674
222	0xbd24aec9	-0.04020575
223	0xbd7f93af	-0.0623967
224	0x3d07df42	0.0331719
225	0xbd19edba	-0.03758023
226	0xbcb06431	-0.02153215
227	0x3d58fcdc	0.05297552
228	0x3d1f5bde	0.03890597
229	0xbb6b0852	-0.0035863114
230	0xbaa8d7fb	-0.001288175
231	0xbdc627fc	-0.09675595
232	0xbd3cf770	-0.046134412
233	0xbd345d30	-0.044034183
234	0x3d301add	0.04299437
235	0x3d3735bd	0.044728983
236	0x3da8b636	0.08237879
237	0xbd13d5ba	-0.036092497
238	0x3da0faf8	0.078603685
239	0x3ca3d267	0.019997789
240	0x3e13f296	0.14448008
241	0xbd5cb9cc	-0.053888127
242	0x3d810187	0.062991194
243	0xbde933c8	-0.113868296
244	0xbd8fcb63	-0.07021215
245	0xbbb94266	-0.0056536673
246	0xbccc2a03	-0.024922376
247	0x3e22bd1f	0.15892456
248	0x3de5fca9	0.11229832
249	0x3e1944c9	0.14967646
250	0xba90b49e	-0.0011040156
251	0x3d5a88db	0.05335317
252	0x3c2aec8a	0.010432372
253	0x3db71b9e	0.089408144
254	0x3da97cf1	0.08275784
255	0x3da09290	0.078404546

fc2.weight f4 [8, 256]
0	0xbf13fe47	-0.5780987
1	0x3d42223b	0.047395926
2	0x3d0ed621	0.034872178
3	0x3ec30ea0	0.38097095
4	0x3e33c677	0.17556177
5	0x3d2f2886	0.042763256
6	0xbdf0e28f	-0.117619626
7	0xbda74fe9	-0.081695385
8	0x3cd59c67	0.026075555
9	0xbca82fd1	-0.020530613
10	0x3de9d52d	0.11417613
11	0x3d4d5d3b	0.05013774
12	0x3e47a353	0.19495897
13	0xbe03fd72	-0.1288965
14	0xbe82fba4	-0.25582612
15	0x3e471d2c	0.19444722
16	0xbe887c24	-0.26657212
17	0xbb399ae2	-0.0028321077
18	0xbd6dad3a	-0.05802653
19	0xbbb4895a	-0.0055095376
20	0x3ca712de	0.020394739
21	0xbce44aa3	-0.02786762
22	0x3e025a5b	0.1272978
23	0xbda494c7	-0.080361895
24	0x3d4daa95	0.050211508
25	0x3d5fbd5a	0.05462394
26	0xbd2ae3b9	-0.04172108
27	0xbe0a49a2	-0.13504651
28	0x3d83b53f	0.06431054
29	0x3d7fd428	0.062458187
30	0x3e9eef5d	0.31041995
31	0xbcf70760	-0.030154884
32	0xbe567cc0	-0.20946026
33	0x3e167546	0.14693174
34	0xbc02c8b6	-0.0079824235
35	0x3e89cc9b	0.26913914
36	0xbe975056	-0.2955348
37	0x3e11b4ff	0.14229201
38	0xbee34ab1	-0.44392923
39	0xbe0d8fd5	-0.13824399
40	0xbcb199e6	-0.02167983
41	0x3b730144	0.0037079612
42	0x3e42af63	0.19012217
43	0x3e386511	0.18007304
44	0x3d31e478	0.043430775
45	0x3d90984b	0.070602976
46	0xbd709a39	-0.05874083
47	0xbeeda5a2	-0.4641543
48	0x3efa5714	0.4889456
49	0x3e0ab9f6	0.13547501
50	0x3d9214e3	0.0713289
51	0xbd48cfb8	-0.04902622
52	0x3de8ad06	0.113611266
53	0xbdd832be	-0.10556553
54	0xbc969e7c	-0.018386118
55	0x3e2768d8	0.16348588
56	0x3dfe15e9	0.12406523
57	0x3e218400	0.1577301
58	0x3e65151f	0.22371338
59	0x3d6cc7b9	0.057807658
60	0x3e9101d8	0.2832172
61	0xba8e204e	-0.0010843368
62	0xbe37ed3e	-0.17961594
63	0xbd940981	-0.07228375
64	0x39e2fdb8	0.00043295114
65	0xbed3cc62	-0.4136687
66	0xbde97c13	-0.114006184
67	0x3f17edba	0.59347117
68	0x3c24117c	0.010013934
69	0x3e89c677	0.2690923
70	0x3b1f1cf6	0.0024278737
71	0x3dde6738	0.10859531
72	0x3da40837	0.08009379
73	0xbd3875a2	-0.04503406
74	0x3e3505b1	0.17677952
75	0x3dbe50f4	0.09292784
76	0x3e2b7307	0.16743098
77	0xbd13be43	-0.03607012
78	0x3e530bae	0.20609924
79	0x3e0e8f51	0.13921858
80	0x3d2b26d2	0.04178507
81	0x3e120a9a	0.14261857
82	0x3de0f8a9	0.10984928
83	0xbe52e429	-0.20594849
84	0x3c011738	0.007879071
85	0xbc9397c9	-0.018016713
86	0xbc1fc081	-0.009750486
87	0xbce211ed	-0.027596438
88	0x3d93cb13	0.07216468
89	0xbc04c05f	-0.0081025055
90	0xbe1f42f7	-0.15552889
91	0x3cc369d1	0.023854168
92	0x3d508b73	0.05091424
93	0xbcc36bb1	-0.023855062
94	0x3c5a171e	0.013311176
95	0x3d50101c	0.050796613
96	0x3e0c3ece	0.13695833
97	0x3d13720c	0.035997435
98	0xbadf4900	-0.0017035306
99	0xbe4bdb37	-0.19907843
100	0xbd936670	-0.07197273
101	0xbe5dad81	-0.21648218
102	0xbcce9397	-0.02521686
103	0xbd9b55d1	-0.075847276
104	0x3e0e071b	0.13869898
105	0xbe87a699	-0.2649429
106	0x3e053880	0.13009834
107	0x3e09e987	0.1346799
108	0x3e45f1ed	0.19330569
109	0x3e19b773	0.15011387
110	0x3e0a0a5d	0.13480516
111	0xbf36e30f	-0.71440214
112	0x3e1296ae	0.14315292
113	0xbd9b26e8	-0.0757578
114	0x3d654744	0.055976167
115	0x3e30781b	0.17233317
116	0xbef37bb1	-0.47555307
117	0xbd6a4e3f	-0.057203528
118	0xbdbd5c58	-0.09246129
119	0xbe881698	-0.26579738
120	0xbaec6a06	-0.0018036969
121	0xbd411ef2	-0.047148652
122	0xbe6f970f	-0.23397468
123	0xbd2ea234	-0.042635158
124	0xbc95f328	-0.018304422
125	0x3e26c71b	0.1628689
126	0x3bd32cc0	0.0064445436
127	0x3d97ce25	0.07412366
128	0x3d9364d7	0.07196968
129	0xbcaab041	-0.020835998
130	0xbb8ed508	-0.0043588914
131	0xbd60e753	-0.054908108
132	0xbd5e14e8	-0.054219157
133	0x3c4e6db5	0.012599398
134	0xbdd42f12	-0.103605404
135	0xbcfffba4	-0.031247921
136	0x3e0170d4	0.12640697
137	0xbdfb75e2	-0.12278344
138	0x3c20b8c6	0.009809678
139	0x3f18dddb	0.59713525
140	0x3dab0227	0.0835002
141	0xbcbaffa6	-0.02282698
142	0x3deb8d78	0.115015924
143	0xbe7c13be	-0.24616906
144	0x3f119c01	0.5687867
145	0xbdd70758	-0.104994476
146	0x3eeac391	0.4585233
147	0x3ec1225a	0.3772152
148	0xbd8501bd	-0.06494472
149	0x3e099170	0.13434386
150	0x3d357c95	0.044308264
151	0x3cbd1a9e	0.023083981
152	0xbe9f3ee7	-0.31102678
153	0x3ca6b434	0.0203496
154	0x3c6128d0	0.013742641
155	0xbedba92e	-0.4290251
156	0x3e33a725	0.1754423
157	0x3e6c9f27	0.23107587
158	0x3dba0b1e	0.09084152
159	0x3e246784	0.16055113
160	0xbb9eae1d	-0.0048425333
161	0xbd5789bc	-0.052621588
162	0x3e010492	0.125994
163	0x3dcd591d	0.10026763
164	0x3d27685f	0.04087102
165	0x3cecebee	0.028921094
166	0xbd394b84	-0.045238033
167	0xbd058198	-0.032594293
168	0x3d1e74dd	0.03868567
169	0x3d8509ed	0.06496034
170	0xbdf0a5ec	-0.11750397
171	0x3be17f75	0.006881649
172	0x3d0cc359	0.034365986
173	0x3d02ff8f	0.031982
174	0x3ef6d043	0.48205766
175	0x3bd61dcb	0.0065343133
176	0xbd29421a	-0.041322805
177	0x3dcefbe5	0.10106639
178	0x3e19dd45	0.15025814
179	0xbef829d4	-0.48469412
180	0xbc871a55	-0.016492048
181	0xbc922988	-0.01784207
182	0x3e1bf756	0.1523107
183	0xbea3e7e4	-0.32012856
184	0x3c2356a3	0.009969386
185	0x3e0d2738	0.13784492
186	0xbcfb740c	-0.030694984
187	0x3e8909c1	0.26765254
188	0x3dfc88c8	0.123307765
189	0x3e1720d9	0.14758624
190	0xbeaca6d4	-0.3372103
191	0xbdc8eea9	-0.09811146
192	0x3e27fc88	0.16404927
193	0xbdd26b1b	-0.10274335
194	0x3d7c1fc6	0.06155374
195	0x3dda4302	0.10657312
196	0x3e7f4087	0.24926959
197	0x3eb4b9e6	0.3529808
198	0x3e238d19	0.15971793
199	0xbb6ed13f	-0.0036440638
200	0x3e28e480	0.16493416
201	0x3e3105fa	0.17287436
202	0xbe07f456	-0.132768
203	0x3bdfb6e0	0.0068272203
204	0x3e09fb51	0.13474776
205	0x3e0ef7b6	0.13961682
206	0x3ba4024f	0.005005158
207	0x3e185ecd	0.14879914
208	0x3f1c2c89	0.61005455
209	0xbe03f013	-0.1288455
210	0x39f688d3	0.00047022718
211	0x3cb3007c	0.021850817
212	0x3ca97f4e	0.020690586
213	0x3d5624c4	0.052281156
214	0x3ede1e66	0.43382567
215	0x3e341cad	0.17589064
216	0x3e221816	0.158295
217	0x3ce797e1	0.028270664
218	0xbe082c1a	-0.13298073
219	0x3b87ab06	0.0041402606
220	0x3e759ecb	0.23986356
221	0xbd9f9693	-0.07792392
222	0x3c9f1b06	0.019422065
223	0xbc87a58f	-0.016558437
224	0xbe6d81a8	-0.23193991
225	0x3d726865	0.05918159
226	0x3d053a9c	0.032526597
227	0x3e3918e7	0.18075906
228	0xbcde0dda	-0.027106214
229	0x3bca7f69	0.0061797393
230	0xbe35e30c	-0.17762393
231	0x3ee68a83	0.4502755
232	0x3b7de1c7	0.003873931
233	0x3db6f9d2	0.08934368
234	0x3e3387d1	0.17532279
235	0x3e99809b	0.2998093
236	0xbdb1a44b	-0.086739145
237	0x3cde1473	0.02710936
238	0xbac176a4	-0.0014760089
239	0xbcbbfd6c	-0.02294799
240	0x3dfae5d0	0.122508645
241	0x3c349b9e	0.01102343
242	0x3ed58280	0.41701126
243	0xbe889e95	-0.26683488
244	0x3e189085	0.1489888
245	0x3ddd1746	0.10795455
246	0x3c82c59d	0.01596337
247	0xbcb90bd9	-0.022588657
248	0x3df8bdbd	0.12145565
249	0x3dfb89d4	0.12282148
250	0xbe8b6384	-0.27224362
251	0x3cc9951b	0.024607232
252	0x3addf94b	0.0016935257
253	0xbefb7503	-0.4911271
254	0x3d184931	0.037179176
255	0x3e271e76	0.16320214

fc2.bias f4 [8]
0	0x3d8dff62	0.06933476
1	0x3cca1dd6	0.02467243
2	0x3d23ccfc	0.03999041
3	0x3d1bca12	0.038034506
4	0x3dd02df0	0.10165012
5	0x3da1802a	0.078857735
6	0x3dbddff9	0.09271235
7	0x3d6e30e0	0.05815208
